src/models/denmark_lstm_best.pth (torch, 210277 bytes, 10 tensors)

lstm.weight_ih_l0 f4 [256, 4]
00000000: 3159 893e 9ef1 d03e 0254 fe3d 0c0f 593e
00000010: 6cd1 b53d d852 8f3e 7e00 50bd 68b8 813c
00000020: 7b6a ce3e 3d5d c53e ad66 6c3e 78fa 993d
00000030: c025 243e d6dd 903d 114c 983d 9850 fdbc
00000040: e2a1 2b3d 084e 19bc a786 d3bd d225 3ebb
00000050: 043d 56be b1ae 09be 64b1 1bbd 4033 363d
00000060: ccbc a2bd 51c0 1cbe ccc3 d53c 177a 6bbe
00000070: 8a5b 813e 995c 3f3e a7e1 413e 2252 37bd
00000080: 8051 383e a66c 2d3e e200 df3a 4f79 d23d
00000090: 2b87 ac3e e6cd 233e 8c17 97bc 1888 dabc
000000a0: 7b59 a0bd eb3c 7cbe af70 ce3b 6de8 083e
000000b0: 8f83 483e 0738 133d b855 e63d 5fdf dc3c
000000c0: fcba 0a3c 464c febd 5cae 0bbe d1e6 abbd
000000d0: b0a2 1cbd 30c7 153e 3b3b b13d 5f81 293e
000000e0: 7b9f 9dbd 707f cebd 11b6 a03e b931 00bd
000000f0: 91ec f63d 7bb1 21bc dac2 373e 3615 b3bd
00000100: 415e a8bd b49d 9abd a34b 9a3e a31b 0abe
00000110: bacf e3bc 3542 40bb a89c 4b3e 65fb fabb
00000120: e93e 0abd 93c0 9cbd a869 8bbd 4df4 b5bd
00000130: 16f3 a73d 6f6a 983e f6a1 4a3d 8a8c af3d
00000140: 0217 95bd defe d1bd 777e 003e 4ced 1e3c
00000150: ddfa 883e 48d1 993e a92d 603e 73f0 a1bd
00000160: e8cd 57be 768b 92bd f953 e63c 7d85 aebd
00000170: a39a b13e d68e 8f3e 86e1 f2bd cebe 13bd
00000180: a615 8d3f 2003 933f efed 3b3e 7e78 413e
00000190: fd1f 86bd 3638 113d b121 013e b270 38be
000001a0: bacd fabb 71e1 02be 10ec 6d3d 5e03 9e3d
000001b0: 2ef8 1cbe 0084 02be 44f5 143e 93c0 f13d
000001c0: f66a 08be c72d 7ebe 1656 473d 9c1f a3bd
000001d0: cb42 973e c84d 103f 8a50 b4bd be66 4cbd
000001e0: 196c d3bd b8cf b2bd 0d65 553c ce02 95bd
000001f0: 4a7b f9bd 24e0 7a3c 9a75 6d3e fea4 8bbd
00000200: 8676 fd3d ff53 0cbc 196e ad3e 1312 e93d
00000210: cb0a 7fbe 0c61 42bd 678a 723e b9bd 3dbe
00000220: 4017 2e3e a984 0f3e 9078 a13e 914e c9bd
00000230: cf31 073e 03f9 b0bc 8587 143e 6764 1dbc
00000240: 8eb0 59bb 5da2 babd 364e 30bc d020 a33d
00000250: a75c 223e 5604 393d 41a6 0ebd face f9bd
00000260: 42b7 d23e 1423 2c3f b0df 1f3e 17dd fc3a
00000270: 6c02 f9bd dab9 fbbd 18d5 8d3d 9e08 b1bd
00000280: 69b4 aa3d 8e72 ae3c 6ff2 a53b 50b4 f7bd
00000290: d2bb 8dbd 9829 e0bd 18fb f33d d1cb a9bc
000002a0: 3fcd 593c 4c2b 19be 2ae2 f2bd bd96 2ebd
000002b0: 0c62 603e 0961 b23e bf1b 2ebd 2860 bdbd
000002c0: d53b cbbd 277f ccbd 28c0 933d 1565 dfbc
000002d0: bb77 3ebd 8a00 0a3e 9a2b 833e 44a3 41bd
000002e0: ef78 7a3e 6606 3b3e 22fa 253e 623e bfbd
000002f0: ba87 213b afa9 22be 39fe 883c 7842 843c
00000300: 32ff 57bd b8b0 82bd 0a3f 953d 2be9 843c
00000310: 61c6 2d3f cc35 793f fea0 533e f3c7 8a3e
00000320: 6092 84be d7f6 2dbe c577 ad3e 97d7 ec3d
00000330: 24e2 203e 1b2f df3e fec8 cdbd 0c0e f1bd
00000340: 79c5 80bd a13c 2dbd 588a 6c3e 4855 d13d
00000350: d8d5 a0bb c367 973d 01eb 1abd 0a93 883e
00000360: 341e 433e dba9 2b3e 0d8d bc3c ea59 393c
00000370: 391c a5bd b72d e83d ca65 e33d 91e3 51bd
00000380: 69bf bd3d fb8f d53e e377 533e 62ce ce3d
00000390: 8f2a 75be 1b96 c4bd 02be 27bd 8b80 a83c
000003a0: bd71 d83e 368e f83e 604a 473e 161c 1a3d
000003b0: dff1 db3d fd4b 573e 3c64 973d bbbe 9dbd
000003c0: 13b5 0d3e eff1 7a3d 6289 873e 576e 55bd
000003d0: c8a2 773d 307f fcbd be87 56b9 6666 e63d
000003e0: 07cf 08be e032 73bd 3b88 d23d 8d36 abbc
000003f0: 71c8 89bd 73a2 fcbc ca7f 763d c12f 3bbd
0.2682586 0.4080934 0.12418367 0.21197146 0.08877835 0.27992892 -0.05078172 0.015835002
0.40315613 0.38547698 0.23086043 0.07518476 0.16030025 0.07073562 0.074363835 -0.03092222
0.04190243 -0.009356983 -0.10328417 -0.0029014242 -0.20921713 -0.13445546 -0.03801097 0.04448247
-0.079461664 -0.15307738 0.02609434 -0.22995792 0.2526515 0.18687667 0.18933736 -0.044756062
0.1799984 0.16935977 0.0017013813 0.10277044 0.33696875 0.15996513 -0.018443845 -0.026676223
-0.07829567 -0.24632613 0.006300054 0.13369913 0.19581436 0.035942104 0.11246818 0.02696198
0.008467432 -0.12416892 -0.13640732 -0.08393634 -0.03824109 0.14626765 0.086538754 0.16553257
-0.07696434 -0.100829005 0.31388906 -0.03129742 0.1205684 -0.009868975 0.17945424 -0.0874428
-0.082211025 -0.07549611 0.3013583 -0.13487105 -0.027809013 -0.0029336337 0.19883978 -0.007659363
-0.033751402 -0.07653918 -0.06807262 -0.08884487 0.08200662 0.29768702 0.049470864 0.085717276
-0.07279779 -0.1025369 0.12548243 0.009700131 0.26753893 0.3004248 0.21892418 -0.0790719
-0.21074641 -0.07155506 0.028116213 -0.085215546 0.3468829 0.28038663 -0.118594214 -0.036070637
1.1022232 1.1485329 0.18352483 0.1889362 -0.0654907 0.035453998 0.12610509 -0.1801174
-0.007653919 -0.12781312 0.058086455 0.07715486 -0.15329048 -0.12745667 0.14546686 0.11804309
-0.13322052 -0.2482215 0.048666082 -0.079650134 0.29543146 0.56368685 -0.08804424 -0.04990267
-0.10323352 -0.087310255 0.013024581 -0.072759256 -0.12181719 0.015312228 0.23189393 -0.06818579
0.12376122 -0.008564948 0.3387306 0.113804005 -0.24906461 -0.047455832 0.23685609 -0.18529405
0.17001057 0.1401545 0.31537294 -0.098294385 0.13202594 -0.021603113 0.14504822 -0.009606457
-0.0033216807 -0.091129996 -0.010760834 0.07965243 0.15855657 0.04517015 -0.03482652 -0.12197681
0.4115544 0.67241025 0.15612674 0.0019291964 -0.12158665 -0.12291308 0.0692541 -0.08644222
0.08335192 0.021294858 0.0050643007 -0.12094939 -0.069205895 -0.109454334 0.11913127 -0.02072707
0.013293563 -0.14957923 -0.118595436 -0.042624224 0.21912402 0.34839657 -0.04250693 -0.09246856
-0.099235214 -0.0998519 0.07214385 -0.02726988 -0.046500903 0.13476768 0.25619203 -0.047274843
0.24460195 0.1826416 0.162087 -0.093380705 0.002464755 -0.15885042 0.016722785 0.016144976
-0.052733608 -0.06381363 0.07287414 0.016224464 0.6788083 0.9734771 0.20666882 0.27105674
-0.25892925 -0.16988693 0.3388044 0.11564558 0.15711266 0.43590626 -0.10048102 -0.11770257
-0.06287665 -0.04229415 0.23099649 0.10221344 -0.0049083047 0.07392838 -0.037821773 0.26674682
0.1905449 0.16764013 0.023016477 0.011312941 -0.08062024 0.113368444 0.11103399 -0.051242415
0.09265024 0.4171141 0.20651202 0.10097958 -0.23942016 -0.09598943 -0.04095269 0.020569107
0.42274275 0.48545998 0.19461966 0.03762444 0.107394926 0.21025081 0.07392165 -0.077023946
0.13838606 0.061265882 0.26472002 -0.05210718 0.060457975 -0.123289466 -0.00020459198 0.1125
-0.13360225 -0.05937469 0.1027989 -0.020900035 -0.06727684 -0.03083918 0.060180463 -0.04569984

lstm.weight_hh_l0 f4 [256, 64]
00000000: abc8 043e 758f 7cbd b325 af3d 5cad 16bd
00000010: 7a86 8a3d 5228 75bd 561c a43d 18b1 6abd
00000020: e323 6abd 5969 3abe b940 803d d647 533e
00000030: be12 653c 9eba 47b9 3a50 383c 7bca 2dbd
00000040: 5bb2 f8bd b2ac 153e 3f07 0e3d 8a61 ad3d
00000050: 069d d0bd 7446 39bb 321a b6bb 2d0e 95bd
00000060: d284 11be 23d7 07bd 757e 0b3e ffc5 20bd
00000070: cd57 eebd 79a1 0abd 463b 5e3d 1b5e 053d
00000080: e155 b23d f5df 3cbd dc40 e93d 4177 0ebe
00000090: 2f0c 58be 1c33 63bd 306e af3d 7eb4 423d
000000a0: 0ee4 4bbd fdb0 023e 2b04 6abd 6729 8a3c
000000b0: d9c7 e03d d616 e33d ca43 11bd 30f3 053e
000000c0: fd8d 10bc d469 853d e9a5 16bd e7ee f9bc
000000d0: 5f54 83bd 645e 1a3d a896 1cbe a150 26bd
000000e0: 8442 5dbd c0b4 ccbc f40b 1f3d 1990 42be
000000f0: 34bb b23d 64f5 e839 871c 003e 3d90 333a
00000100: 96a8 5c3d e80c 7bbd 2300 adbd c560 9e3d
00000110: ee47 dcbd 830f eaba a744 013d 3da4 1bbc
00000120: 8dd2 c0bd ebf4 e93d 3278 543d 58cf 633d
00000130: b59b a6bd 3362 2c3e 8c6a 73bd 1ed9 ec3d
00000140: 1ccd 5dbc 096f cc3d d3cf 17bd 4f27 9c3c
00000150: fcea 503d 17f6 893d 15a8 52bb 1e8c bcbd
00000160: f3aa 63be d9a5 d83d 1f2d 61be ff89 643d
00000170: fd16 acbd 1f08 e0bc 5e4c a53c 7850 0d3e
00000180: 7280 36be af8f 663d 04f6 15be 7d53 e4bd
00000190: f53b 11bd dd25 19be ab50 093e 5c82 e43d
000001a0: 1463 203d f81a ca3d 9ad8 1cbe 3395 3c3d
000001b0: 51f6 d6bd 6002 9fbe b410 2a3e fcdd 99bd
000001c0: 59c8 4ebd d748 473e 5e1f 0abe 6e20 a0bd
000001d0: 8656 febb ab9a 2c3d 96fe 633d a7ac 20be
000001e0: 38c3 513c a7e1 213d 498b 53bc 6152 70be
000001f0: 79e1 6f3d 3d7b 023d 7fe1 96bd e204 9e3d
00000200: 7b5d 923d e3ef d23d e3c6 20bd c9c5 ac3d
00000210: c7ec 353e 7ed3 423d f134 07be 1879 203e
00000220: 3f30 e8bc f6ca 293e 60ef a13d e6ce 373e
00000230: bb61 2bbe 6880 3d3e 7175 aebd cf31 e4bc
00000240: 96cc 89bd 3b8a 313d 8098 503d 6120 703d
00000250: 4bab 7538 0883 8ebb b714 753d 9ae5 393c
00000260: ac80 06be 10ea eabb c6ce 1c3e 9630 3d3d
00000270: d140 983d 5c45 123d 6501 38be 20be b8bd
00000280: 8e3e b43d 82c6 c1bd 5253 c33d d70b 98bd
00000290: 7196 50bd 5664 603b 1a40 3e3d 67a6 5c3d
000002a0: e17d 213e e2aa b6bd 2b27 85bd 4620 b7bd
000002b0: 740f f6bd 2292 4e3d 0cf0 67bd c605 e1bd
000002c0: f306 35bc 8f88 96bd a23b 84bd 1631 443d
000002d0: 57af 9bbd 7bd4 383b 1db5 f03d 3e5c 20bd
000002e0: 52e1 273e 4f0d 633d b4d4 373e f9ce d6bd
000002f0: 07cf 953d e86d 783d 2a29 a1bc 703e d63c
00000300: 0b11 d03d b548 a43d 0020 c73d 3a19 12bc
00000310: 4ece 99bd b0c7 64bc 7cad 71bc c7d3 4cbd
00000320: 1e5d f53c e0ad 24bd 7c19 da3c 5556 233e
00000330: 4a2a 14ba 17e7 88bd e410 ac3d 5b6d c0ba
00000340: 4b24 833d 6c30 963d b5a5 013e 8728 86bc
00000350: 910e 01bd 69fb 603b 5e48 cabc ca3a 883d
00000360: 4b7c d9bd 9844 1dbd d6a1 673d 642f 43bc
00000370: 3be5 f53d 38e4 243d 5bd6 17be 4ced 1ebe
00000380: accc 21bc beb0 2bbd 441d 893d 2724 1fbe
00000390: 9f1c 09bc 52d8 46bd 667f 9d3c f518 a73d
000003a0: 3063 053b 4ff1 10be aedd 643d ff5b 9dbd
000003b0: 5842 823c 4db1 183e 16f1 ebbd 2f41 1bbe
000003c0: 219b 3d3e 49f5 883d ed02 c0bd 622f 203d
000003d0: 51a5 3ebd eaba abbd 390d a93d 03b7 393c
000003e0: 4123 8539 a54d f5b8 9ffb 91bd 8ded 0d3e
000003f0: eb69 a33d 62c2 123d 0397 553d 1965 48bb
0.12967174 -0.06166025 0.085521124 -0.036786422 0.067639306 -0.059852906 0.08013217 -0.057297796
-0.05716313 -0.1820425 0.06262345 0.20632872 0.013981519 -0.00019047639 0.011249596 -0.04242943
-0.121433936 0.1461666 0.03467488 0.0846587 -0.101862 -0.0028270753 -0.005557322 -0.072780944
-0.14210823 -0.033164155 0.13622458 -0.039251324 -0.116378404 -0.0338454 0.054255746 0.03256045
0.08707786 -0.04611202 0.11389324 -0.1391268 -0.21098398 -0.055468664 0.085659385 0.047535412
-0.049778037 0.12762828 -0.05713288 0.016865445 0.10975618 0.1108834 -0.03546504 0.1308105
-0.008822915 0.06514326 -0.036779318 -0.030509425 -0.06412577 0.037687674 -0.15291846 -0.040604237
-0.054018512 -0.024988532 0.03882976 -0.19000281 0.087271124 0.00044433319 0.12510882 0.0006849801
0.053871714 -0.061291605 -0.08447292 0.07733301 -0.10755907 -0.0017857406 0.031559613 -0.009499607
-0.094151594 0.114236675 0.05187244 0.05561766 -0.081351675 0.16834335 -0.059427783 0.11564849
-0.013537671 0.09982116 -0.03706343 0.019061713 0.05100535 0.06736391 -0.0032143642 -0.09206413
-0.2223318 0.10578508 -0.21989869 0.055795666 -0.08402822 -0.027347622 0.020178016 0.13800228
-0.17822435 0.05628937 -0.14644629 -0.111487366 -0.03545757 -0.1495585 0.13409679 0.111576766
0.03915699 0.09868425 -0.15317002 0.046040725 -0.104962 -0.310565 0.16607934 -0.07513043
-0.050484035 0.1946138 -0.13488528 -0.078186855 -0.0077617792 0.04213969 0.055662714 -0.15690862
0.012802891 0.03952184 -0.012911626 -0.23468925 0.058564637 0.03185581 -0.07367229 0.07715775
0.07146736 0.10299661 -0.039252173 0.08436162 0.17766105 0.047564976 -0.1320379 0.15671194
-0.028343318 0.1658133 0.07906985 0.17950019 -0.167365 0.18506014 -0.08518494 -0.027855782
-0.06728475 0.043344717 0.050926685 0.05862463 5.857208e-05 -0.0043491162 0.05983421 0.011346245
-0.13135022 -0.0071690157 0.15313253 0.046188913 0.07434238 0.035710678 -0.17969282 -0.090206385
0.08800994 -0.094616905 0.095373765 -0.07424133 -0.050924722 0.0034239492 0.04644785 0.05386963
0.15770675 -0.08919312 -0.06501611 -0.089417025 -0.12014666 0.05043233 -0.05662541 -0.10987429
-0.01104902 -0.07350265 -0.064566866 0.047898374 -0.07601803 0.002820282 0.117532946 -0.03915047
0.16394547 0.055432614 0.17952234 -0.10488696 0.07314878 0.06065169 -0.019672949 0.02615282
0.10159501 0.0802168 0.097229004 -0.008917147 -0.075100526 -0.013963625 -0.014750835 -0.050006654
0.029951628 -0.040204883 0.02662348 0.15950902 -0.00056520535 -0.06684702 0.08401659 -0.0014681028
0.06403407 0.073334545 0.12660868 -0.016376747 -0.031508032 0.003432954 -0.02469271 0.06651838
-0.1061941 -0.038395494 0.056550823 -0.011913154 0.12006613 0.04025671 -0.14827864 -0.15520209
-0.009875458 -0.0419166 0.06695035 -0.15541135 -0.00836864 -0.048546143 0.019225787 0.08159057
0.002035331 -0.14154552 0.055875473 -0.076835625 0.015900776 0.14911385 -0.11520593 -0.15161584
0.18516208 0.066874094 -0.09375558 0.039107688 -0.046544377 -0.083852604 0.08254475 0.011335137
0.00025394003 -0.00011696973 -0.07128071 0.1386015 0.079791866 0.03582991 0.05214597 -0.0030577837

lstm.bias_ih_l0 f4 [256]
00000000: 0222 66bd a890 fdb9 4b75 02be 89e0 943d
00000010: 4fa7 57bd 3bdd cabd cb2f e5bd 0e37 1c3c
00000020: 8df3 4abd 1caf 8e3d 196d 58bd 2f18 a3bd
00000030: bd52 97bd d881 a93c 0312 c6bd 8e82 2d3d
00000040: dd7c 16be b864 babd dc4a 02be a29f f6bd
00000050: a122 2f3d 616e 4b3d 53fb 65bd a592 9dbd
00000060: 31a2 b73d cad1 06be a00a 07be 7a2f c4bd
00000070: e6c7 bdbd af75 8dbc 3396 9a3d 3e65 8a3e
00000080: ec9a 03bd 2aa4 3abc a0e6 233e e410 ddbc
00000090: 2d21 cdbd 8813 03be 2519 83bd 9113 51bd
000000a0: 84d5 3f3c 2fe0 afbd 28a1 d1bd 9bc6 163d
000000b0: cc54 3fbd 55ad 88bd 0d88 d03d 8ef5 b13d
000000c0: bcab aebc ce47 9bbb c324 9d3d 6b74 cb3c
000000d0: 01f6 04be e0fe 46bd ff82 54bd f3f5 03bd
000000e0: a0fd 84bc 35c8 07bc 887d 68bd 724a 17bd
000000f0: 02e9 f33d 120f a2bd 5ba6 50bd 6081 c2bd
00000100: 802c 4fbe de13 2abd 3fb2 9ebd 3c2b 983d
00000110: 8e75 9b3d c3ce 3cbe 6ad5 72be b4b5 573c
00000120: f3c9 2cbd 66af 69be 6c04 a1bd beb4 ddbd
00000130: 689f a6bc d063 993c 64e7 433c 1ae8 613d
00000140: fa18 eabd a0c2 923d a158 2bbe 0a9e 16be
00000150: 94e4 cebd a56e 083d 8f94 febc 81e3 1dbe
00000160: efd5 813d c693 33bd 4837 523d a214 09be
00000170: 024d fdbd 016a abbd 2ab0 81bd 2c44 98bc
00000180: a750 9ebd 5400 823d c17f 97bd d4f4 17be
00000190: 2b4b 25be 3448 1ebd 4cc1 86bd e17a 7e3b
000001a0: 451a 24be f5da 56bd 2082 85bc c638 a6bd
000001b0: 7848 3a3c c2b5 043d 4e42 6e3d eb20 ef3b
000001c0: 4200 cfbd b339 aabd 766c 793d 6c19 8ebd
000001d0: d05c 863d 4b8a 3b3d 9672 2dbe e9ac 293d
000001e0: a48a 0fbe 4cf4 34be eaf0 353d 19d2 17bc
000001f0: f79c 563d 60cd 463d f8a2 adbc c139 ba3c
00000200: 4292 c73b c7ea 5d3d d362 21bb c26d 14bb
00000210: ab93 c1bc 9902 43bd b801 c2bc 68a5 4e3d
00000220: 04df 60bd 6e1f 55ba 65a6 41bc a764 f6bd
00000230: 7559 d13b b470 893d 11fa 453d 74a7 913d
00000240: ba09 943c 7659 9b3c b11b c9bd 85db e9bc
00000250: 8f53 ec3d cd5f 76bd 9900 193d 4d05 873d
00000260: d273 2cbd d455 ca3c 915e 24bd 1969 ae3d
00000270: c4f5 67bd f868 d53d c6f5 71bc 96f4 dd3d
00000280: 247d f0bd 46bf ea3d 9481 683d 035d 1dbe
00000290: d225 363d e520 b63d e604 c23c 3ddc 4fbd
000002a0: 3c4b 52bc 6edf 49bc 8d35 96bd d26e 8ebb
000002b0: 7bd7 9dbd 8051 4e3d bd16 9c3d 0fca 2e3d
000002c0: 1de2 25be 80d3 943c 4d66 adbd 0cf1 98bd
000002d0: 288d cf3c de54 cf3d 25d7 1dbd ead1 113d
000002e0: 34b4 3fbd efff ebbd 0a90 7e3d 9493 9d3b
000002f0: b891 c7bd dc3b 13bd a039 99bb 40c5 7e38
00000300: a260 8c3b 5333 d3bd 4154 00be f000 153d
00000310: bae4 19be 8d4a 243d 3543 a1bd af51 32bd
00000320: 2dcf 6e3d b7e7 793c 2575 8cbc 389c c0bd
00000330: a0ed d8bd 2235 ecbd 4b61 9f3c 6a2f 143d
00000340: fe83 63bd 654e 323d f8c8 85bd 3024 173c
00000350: c459 073e feae ea3d 3c53 943d 9c5e b8bd
00000360: b291 153e f303 88bd 3c37 9c3c 2077 563d
00000370: 2872 723c 12d5 9dbd b4d3 2abb afbc 4f3d
00000380: d9f5 8cbd 839f d3bd 8cd3 f53c f94f ecbc
00000390: 10e5 32ba 80ad f43c f87d 2fbd 4122 e23c
000003a0: 7d2c e8bc b4f4 0a3d 775a 34be 5047 8cbd
000003b0: 8e5d a5bb 099d 013d aabb 85bc 5f37 143e
000003c0: 9983 283e 8cf6 3bbd 4b70 1cbd 1398 683c
000003d0: 3d11 06bd 7f2e b33d feb1 8abd f9a8 4b3d
000003e0: 8356 c4bd cb2d 07bd 9628 c5bd 92cd caba
000003f0: dc01 ff3d fef8 a33d 1d14 f5bd 55bf b03d
-0.056184776 -0.00048363698 -0.12740056 0.07269389 -0.052649792 -0.099054776 -0.111907564 0.00953461
-0.049548674 0.06966993 -0.05283842 -0.07963597 -0.07388828 0.020691797 -0.09671404 0.042360835
-0.14696069 -0.09101242 -0.12723869 -0.12042166 0.042757634 0.049665812 -0.056147885 -0.07693986
0.089664824 -0.13165966 -0.13187647 -0.09579368 -0.09266643 -0.01726803 0.075481795 0.27030367
-0.032130167 -0.011391679 0.16005945 -0.026985593 -0.100160934 -0.1280042 -0.0640128 -0.05104405
0.011708621 -0.085876815 -0.10235816 0.0368105 -0.046711728 -0.066736855 0.101821996 0.08689414
-0.021322124 -0.0047387844 0.07673027 0.024835786 -0.12984468 -0.04858291 -0.05188274 -0.032216977
-0.01623422 -0.008287479 -0.05676034 -0.03693623 0.11909677 -0.07913031 -0.0509399 -0.094973326
-0.20231819 -0.041522853 -0.077488415 0.07430121 0.07590781 -0.18438248 -0.23714224 0.01316588
-0.04218478 -0.22820815 -0.078621715 -0.108254895 -0.020339683 0.018724352 0.011957023 0.05515299
-0.11430545 0.07166028 -0.16733028 -0.14708725 -0.101021916 0.033308644 -0.031076698 -0.15418817
0.06339633 -0.0438421 0.05132225 -0.13386777 -0.12368204 -0.08369828 -0.06332429 -0.018587194
-0.07730227 0.06347719 -0.07397414 -0.14839488 -0.16141956 -0.038643077 -0.06579837 0.0038830566
-0.16025646 -0.052454907 -0.0162974 -0.081162974 0.011369817 0.0323999 0.0581687 0.0072976253
-0.10107471 -0.083117865 0.060894452 -0.069384426 0.06560671 0.045786183 -0.16938242 0.041424666
-0.14017731 -0.17671317 0.044419207 -0.0092664 0.052395787 0.048535705 -0.021195874 0.022732617
0.0060904333 0.05417898 -0.0024625554 -0.0022648429 -0.023629984 -0.0476099 -0.02368246 0.050450712
-0.054900184 -0.00081299886 -0.011819457 -0.12030917 0.006388838 0.067109495 0.048334185 0.07112017
0.018071044 0.018963557 -0.09819735 -0.028547058 0.11539375 -0.060149956 0.037354086 0.06592808
-0.042102642 0.02469913 -0.040129248 0.085161395 -0.056630865 0.10420412 -0.01476807 0.10837667
-0.11742619 0.11462264 0.0567642 -0.15367512 0.044469662 0.08892993 0.023683976 -0.050747145
-0.01283532 -0.012321336 -0.07334433 -0.004346707 -0.07707115 0.050370693 0.076215245 0.042673167
-0.16199537 0.018167257 -0.08466778 -0.07467851 0.025335863 0.10123609 -0.038535256 0.03560058
-0.046802714 -0.11523425 0.062149085 0.0048088524 -0.097445905 -0.03594576 -0.004676059 6.0742022e-05
0.0042839805 -0.10312524 -0.1253214 0.036377847 -0.15028659 0.04011016 -0.07874147 -0.04353493
0.058303047 0.015252999 -0.017145703 -0.09404796 -0.10592198 -0.11533572 0.019455573 0.03617803
-0.0555458 0.043531794 -0.06532472 0.009224936 0.13217837 0.11459158 0.07242438 -0.0900242
0.1460636 -0.06641378 0.019069307 0.0523597 0.014797725 -0.077066556 -0.0026066126 0.050717052
-0.06882829 -0.10333159 0.0300081 -0.028846728 -0.0006824294 0.029867887 -0.042844743 0.027604224
-0.028341526 0.033924773 -0.17612635 -0.06849539 -0.005046553 0.0316439 -0.016324837 0.14474247
0.1645645 -0.045889422 -0.03819303 0.014196414 -0.032731283 0.08749103 -0.067722306 0.04972169
-0.09586813 -0.033002656 -0.09626882 -0.0015472642 0.124515265 0.08006476 -0.11966727 0.08630244

lstm.bias_hh_l0 f4 [256]
00000000: a8d3 04bc 1ca5 dabd 90ae 9f3d 7698 003c
00000010: bfca 09bd 4d60 473d cae4 0cbe 4782 f1bd
00000020: d5f8 6c3d c32d 493d 3e84 e83c 4eb0 59bd
00000030: 3f0a 5bbc 337c 743c 9faf b03c 5442 7fbd
00000040: 6af2 583d 0cf0 82bc c4b6 3fbd a642 9bbd
00000050: 30de fa3d f03e c2bd 0601 8bbd ee54 fdbd
00000060: 7a22 393e 1fd7 a4bd c270 36bc 844c c0bc
00000070: f6d2 bc3d 7c1d 10be 5ad2 b7bd 3f19 743d
00000080: 7df3 903c 7935 41be 68d6 433d aee5 423d
00000090: 33fe 40bd 32ee 0d3b 39fc a5bd e513 bdbd
000000a0: f4ea 1fbd dbc3 053e 2ee3 88bd 309b 183d
000000b0: 0038 59bd d24d 153d 7eba 873d d8e6 723d
000000c0: 68f0 233e bdd5 7b3d d9dd af3c 1b18 993b
000000d0: 313f 14be 36eb ee3d 36bd 85bd cf42 92bd
000000e0: 6397 ffbc 5147 08be 4fac a1bd 6739 093e
000000f0: 33c1 ea3c bd92 833d 07cd 80bb fe02 0f3e
00000100: 6cc9 29be afe1 1bbe daf5 453d 7030 e9bd
00000110: 0418 2fbe 085f d2bd 6f30 ccbd 1d14 263d
00000120: b7e1 e1bd ef91 57be 1d3c 133d f417 fcbd
00000130: e152 133d 2e67 80bd 8a35 ecbd d589 95bd
00000140: fe06 5b3d 14f8 c8bd 5b3e 44be 3ede 323c
00000150: 99f9 b33b 03ac 44bd 373f c03c f4e3 9abd
00000160: 6290 b9bc 0047 09be e1e3 d0bd c6e6 07be
00000170: 88dd 583c 9b3b cabd 27ad 9d3d dd4b 6dbd
00000180: 2731 ed3c 1bfb 2f3d 8b4f b0bd 284d c7bd
00000190: 3a0f d2bc e75d 1dbe c97a 5bbd e985 8e3d
000001a0: 661f 35bd f8ba 17be 0296 b7bd 5a49 4a3d
000001b0: 5e11 f6bc 7a13 45bd c7b9 f83b e498 6a3d
000001c0: 03ed 3c3d cec2 35bd f5bd e6bc 28d8 a8bd
000001d0: 802e af3c 5948 cabd 51ee 543d 89e6 193d
000001e0: e10b 25be fdc6 0dbe f470 7fbd ca3e 26be
000001f0: c54d 49bc b177 9cbd 754d 553d 4c2f 96ba
00000200: a143 e43d 55b0 7cbd 9cf3 e6bd 188d 16bd
00000210: 9fc7 a1bc 7b6c bc3c 30c6 603b 500a 0dbd
00000220: f768 1ebd f8bc 05bb 3694 813d b3a5 203d
00000230: 3ccf 603d bdde bb3c 9126 703d 4706 f1bd
00000240: 3e5d 023d 5387 97bd 2eeb a63b 4557 6bbd
00000250: 09c8 85bc 7850 4d3d 01ce a63d 6b94 b7bc
00000260: 6563 2fbc 2d9c 5f3c 802d 84bd 3629 123d
00000270: dc95 2f3d 0445 b4bd 7b5a 303d b686 67bb
00000280: 5ee6 03bd 1fbc 75bd 7474 adbd d4cc 843d
00000290: 2f99 98bd a390 473c b38e 863d d070 b13d
000002a0: 79e7 aa3c c5b2 c73d 3fe2 9dbc 701b 133d
000002b0: 72fa e1bb a819 16be 3b7a b3bd 7b8c bf3c
000002c0: d4c2 8c3d 718e ef3c ca74 87bb 6c63 993d
000002d0: d50b b2bd 3396 77bd d638 043e 12a0 4dbd
000002e0: b146 8e3c 7397 1e3d f9d4 abbd 78ba 88bd
000002f0: ec35 373d de5a ee3c 37a4 0fba d6dd 893d
00000300: 249d 0d3d 5adb 2ebd 2e7c 8d3d 1059 ae3c
00000310: 2dab e03c 96b9 973d 368a 86be f8f2 c6bd
00000320: 769c 9e3d 019f 43bd 8776 e63d ccbb 383d
00000330: 484f 1bbe 37e5 993d 4871 823d 366e e7bd
00000340: 0300 81bc 068b fcbd 16d8 953b f49d 193d
00000350: d883 473d 3053 9b3d 1d5d c6bd 9ba2 2ebd
00000360: ce4d e03d 3cd9 883d aa02 943d 598f 85bd
00000370: 3970 e5bd efdb 28bd 2f83 973d e002 ee3d
00000380: 8d2a b13d 8ac6 30be ee55 2abd a22a e1bd
00000390: 2f91 28be f50a 77bd e42d 01be beb2 373d
000003a0: 6071 a73d 74e8 d43c efa3 24bd 1a90 8cbd
000003b0: 1e49 97bd 5066 27be 026f c33d 7707 363d
000003c0: bb63 f03c 8cb5 10bd a75e 2f3d 3195 1bbe
000003d0: 2aa0 6a3d b8df 92bd c9a8 e23c 8eaf 773d
000003e0: c3de ffbd 2fc8 4d3d b7f0 fc3d dd6d f93d
000003f0: 2200 223e 1f55 30bd f79f 52bd ece6 013e
-0.008107103 -0.10676023 0.07796967 0.0078488495 -0.03364062 0.048675824 -0.13759151 -0.117924266
0.057854492 0.049115907 0.02838337 -0.053146653 -0.013369142 0.0149221895 0.021568118 -0.062319115
0.05296556 -0.015983604 -0.04680516 -0.075810716 0.1224941 -0.094846606 -0.067873046 -0.12369715
0.18079558 -0.080488436 -0.011135282 -0.023473985 0.09219925 -0.14073747 -0.08975668 0.05959439
0.01769423 -0.18868054 0.047811896 0.04758232 -0.047117423 0.0021656868 -0.08104748 -0.0923231
-0.039042428 0.13062994 -0.06683956 0.037257373 -0.05303192 0.03645117 0.066273674 0.05930218
0.16009676 0.061483134 0.02146809 0.004672063 -0.1447723 0.11665957 -0.0653023 -0.07141649
-0.031200117 -0.13308455 -0.078941934 0.13400804 0.028656578 0.064244725 -0.003930691 0.13965985
-0.16580743 -0.1522281 0.048330165 -0.11386192 -0.17099005 -0.10272032 -0.099701755 0.040546525
-0.1102938 -0.21051763 0.035946 -0.12309256 0.03596771 -0.0626968 -0.11533649 -0.0730168
0.053473465 -0.09812942 -0.19164412 0.0109172445 0.005492401 -0.048015606 0.023467643 -0.0756301
-0.022651855 -0.1340599 -0.101997145 -0.13271627 0.013236411 -0.0987465 0.07699042 -0.057933677
0.028954102 0.042964082 -0.086089216 -0.09731513 -0.025642026 -0.15367852 -0.053583894 0.06959135
-0.044219397 -0.14817417 -0.089641586 0.04938636 -0.030037578 -0.048114277 0.0075905058 0.057274714
0.04612447 -0.044375233 -0.02816675 -0.082443535 0.021384478 -0.098770805 0.05198509 0.03757337
-0.16117813 -0.1384544 -0.06236358 -0.1623489 -0.012286608 -0.07640017 0.052075822 -0.0011458187
0.11145712 -0.0616916 -0.112769336 -0.03675565 -0.019748507 0.023000946 0.0034297816 -0.034433663
-0.03867432 -0.0020406824 0.06327097 0.039220523 0.054885134 0.022933358 0.05863053 -0.117687754
0.031827204 -0.07398858 0.0050939536 -0.057456274 -0.016330736 0.05012557 0.08144761 -0.022409638
-0.01070485 0.013648075 -0.06453991 0.035683833 0.042867526 -0.08802226 0.04305504 -0.0035328097
-0.032202117 -0.05999386 -0.08469477 0.0648438 -0.074510925 0.01218048 0.065701865 0.086640954
0.020862328 0.097508945 -0.019272922 0.03591484 -0.0068963105 -0.14658225 -0.08763548 0.023382416
0.06873098 0.029242726 -0.0041337954 0.07489666 -0.08693663 -0.060445976 0.12912306 -0.050201483
0.017367693 0.038718652 -0.08390231 -0.06676191 0.04472916 0.029096063 -0.0005479487 0.06731765
0.03457369 -0.04268966 0.06908451 0.021282703 0.027425373 0.074084446 -0.26277322 -0.09714311
0.07744686 -0.04775906 0.11253076 0.045100972 -0.15166962 0.075144224 0.06369263 -0.11300318
-0.015747076 -0.12331204 0.0045728786 0.03750415 0.04870972 0.07584226 -0.09685729 -0.04263554
0.1095234 0.06682059 0.07227071 -0.06521482 -0.112030454 -0.04122537 0.07398068 0.11621642
0.08650694 -0.17263237 -0.041585855 -0.1099446 -0.16461633 -0.060313184 -0.12615162 0.044848196
0.081759214 0.025989749 -0.0401954 -0.06863423 -0.07386993 -0.16347623 0.095426574 0.044440713
0.02934443 -0.035329387 0.042814877 -0.15193631 0.05728165 -0.07171577 0.027668374 0.060470156
-0.1249366 0.050239738 0.123506 0.12179158 0.15820363 -0.043049928 -0.051422086 0.12685746

lstm.weight_ih_l1 f4 [256, 64]
00000000: 2f4b 253e 9547 e1bd 6d13 243e 74aa 363d
00000010: cedb ba3c 8d23 e7bc 5fb7 e83d 65aa fcbb
00000020: 42f3 8dbd d111 75bc b11f a13c d4ba d23d
00000030: b8c3 94bd 6fa9 2dbc 88fa 883d 1fdb 013d
00000040: d8dd 0f3b 2c69 3b3e 35f0 c0bc 0cc0 d13d
00000050: 3b6b 113d 4bf3 b5bc 87fb e5bc 8800 39bd
00000060: 61d3 0cbe a091 2d3c 5e74 dd3b f07f be3d
00000070: c9da 5d3e 191b a7bd 50d6 d03c d19d dc3d
00000080: ad3f 483c 5b17 8dbd 928e cc3d 74d9 8e3d
00000090: ea55 28bd 8abc dcbd 98d4 00bd 3dd0 0fbe
000000a0: 6e52 e7ba cfd9 4f3d b271 74bd 073d 99bd
000000b0: 9b4c 2bbd c4af 9c3a b998 0abc f9fa 233d
000000c0: d688 0d3e a1b7 f03c 7adc 01be 62b8 cebb
000000d0: 4f99 fcbd 063f 223e 6a0e a5bd 742f 25be
000000e0: 02e1 893d 7842 a9bd df04 773d 08e0 9dbd
000000f0: eb17 80bd 85aa 8ebd db47 adbc 5c89 67be
00000100: 567f 4dbe 1fe3 3bbd 5000 0fbe f2a3 d63d
00000110: abe8 a33d e09c 133e f78e 393d a451 91ba
00000120: de7c df3b 96c5 bfbc 9e4f 55be 16dd cd3d
00000130: 7c91 553d 2639 51be e817 97bd d553 db3c
00000140: 2249 7c3d 79f2 a1bc 66f2 67bc 41ee 7cbd
00000150: 8e67 0abd 77b2 bb3d e087 d3bb 7e5c 09be
00000160: 8ced a33d 0fd1 2ebd e2b1 45be 01cb 31be
00000170: a197 27be d09c 1d3d 2c47 ecbd fbbd 35be
00000180: 52fc 1c3b 993d d9bc 1de3 1cbd 1c1f 8c3d
00000190: 72c9 89bd 7b8b 6cbd 50fa 0f3e 8f0f 3cbd
000001a0: ea1a fcbd 1df1 c4bc d04c a93c fd94 4cbe
000001b0: 52f6 913d 7812 5abe e2e3 e8bd 31d9 83bd
000001c0: 0ea1 a93d 4fff 8a3d 268f 6fbd 5099 bd3b
000001d0: 82cd 0e3e abef 693e 1cab 943d 0c38 a0bd
000001e0: 7241 453d 45e5 103d 680f 84bd 1917 363e
000001f0: 7562 ff3c 4dda 9a3c d76e adbd 828d 443e
00000200: 13ec 033e ebce a9bd a69a 403d e378 253e
00000210: 5c17 343d cac8 8e3d 963c 8dbc f86f 8c3d
00000220: 19ed 68be 4e4d 98be 05c9 733e 8193 e6bc
00000230: 5db6 03be 996a 3e3c add2 2f3e cc91 56bd
00000240: e329 a4bb 6adb 8a3d ce21 5cbd 5a8b 793b
00000250: 55ed 58bd c307 20be cfb5 eebd 0040 29be
00000260: deea 3c3d 90a8 43ba 07da 2dbd aa23 963d
00000270: 7f4c 27bd acef 64bd 55e5 28be ab35 9a3c
00000280: cea3 19bd 4d19 103b 4e20 233e 644d 3bbe
00000290: ae3f f4bc e935 9abc 1639 183d 9a2a 92bc
000002a0: cb7b b33d 05b6 1c3e de3d 3d3d 9578 2abd
000002b0: 8b1b af3d 9b63 84bd 2d31 9fbd 8ad6 573e
000002c0: dafb b13c 22d3 dfbb d31b 22be cf6f a3bb
000002d0: 2845 5cbd 93cf 623d e235 0ebe 6e04 bcbd
000002e0: eba5 293d fb11 2a3e a9d3 78bb 5b2f 43be
000002f0: d85a 0dbe c53f 13bd 9a88 963d d685 bb3c
00000300: 8841 123e d17e 9abd 3b1c df3c 0d17 51bd
00000310: 7a12 9b3d 4841 2b3d 8b1d d1bb 8b66 91bb
00000320: f839 afbd ed94 9fbb ef25 4cbd a9ae 603e
00000330: ec85 c1bd 8a7b 393e 3c81 62bd 18b7 6b3e
00000340: 1f85 edbd 0bd1 0d3d 87dc 393e 190b 6f3b
00000350: 7c36 ab3c f3af 5b3e 47ef 6dbe 1d03 82be
00000360: 29c6 ea3b b729 72bc be4f 933b 844b bcbd
00000370: 1829 cd3d 31b5 27be d1a5 85bd ec56 fa3b
00000380: 1bfe b73c b107 10be f6ad d83d 5f77 f5bb
00000390: 8752 dcbd 4a35 b7be eeb7 a53c bc84 debc
000003a0: 83bb cbbd 2046 c93d 382a db3c 429b 4fbe
000003b0: 032b 293e 03e8 893d 1919 6bbe a65c d33d
000003c0: a354 9e3d 3ce3 243c c641 663c 56d2 983c
000003d0: a5fa e03c a99f 523e 89f2 8dbd 41d8 c53d
000003e0: c975 4f3d 1305 d03d 1bee bc3e 290a 30be
000003f0: 727a 953d 2d94 b8bd ea31 f13d 734b bbbd
0.16141962 -0.10999981 0.16023035 0.04459615 0.02280989 -0.028215194 0.113631 -0.0077107423
-0.06931163 -0.014957861 0.019668432 0.10289541 -0.07263893 -0.010599478 0.0668841 0.03170311
0.0021952298 0.18301839 -0.02355204 0.10241708 0.035502654 -0.022210738 -0.02807404 -0.045166522
-0.1375251 0.010593802 0.006758257 0.09301746 0.21665491 -0.08159465 0.025492817 0.107722886
0.012222213 -0.0688922 0.09988131 0.0697507 -0.04109756 -0.107781485 -0.031452745 -0.1404428
-0.0017648467 0.050744828 -0.05967874 -0.07482343 -0.041821104 0.0011954238 -0.0084592635 0.040034268
0.1382173 0.029384436 -0.12681761 -0.0063086012 -0.12333929 0.15844354 -0.0805939 -0.16131383
0.0673237 -0.08264631 0.06030738 -0.07708746 -0.06254562 -0.06966118 -0.021152427 -0.22610992
-0.20068106 -0.045870896 -0.13964963 0.10480489 0.08003362 0.14415312 0.045302358 -0.0011086953
0.0068203053 -0.023409646 -0.20831153 0.100519344 0.052140698 -0.20431957 -0.07377607 0.026773373
0.061593182 -0.01976894 -0.014156913 -0.061750654 -0.033790164 0.09164899 -0.0064554065 -0.13414189
0.08004293 -0.042679843 -0.19306138 -0.17362596 -0.16366436 0.038479626 -0.115370125 -0.17748253
0.0023954106 -0.02651863 -0.03830253 0.06841871 -0.06727876 -0.057750206 0.1406033 -0.045913275
-0.12309821 -0.024040753 0.02066651 -0.1997871 0.0712706 -0.21296108 -0.1137159 -0.0643791
0.08282672 0.067869775 -0.058486126 0.0057860985 0.13945583 0.22845332 0.07259199 -0.0782319
0.048158117 0.0353749 -0.06448251 0.17782249 0.031174878 0.018902922 -0.08468407 0.19194606
0.12883024 -0.082914196 0.047022484 0.16159396 0.04396759 0.06971891 -0.017240804 0.06857294
-0.22746696 -0.2974648 0.23807152 -0.028146507 -0.12862535 0.011622095 0.1717021 -0.052385136
-0.005009876 0.06780131 -0.053743176 0.0038077445 -0.052960712 -0.15627961 -0.11655771 -0.1652832
0.046122424 -0.00074637774 -0.042444255 0.07331021 -0.040844437 -0.05589263 -0.16493733 0.018824419
-0.037509732 0.0021987737 0.15930292 -0.18291241 -0.029815521 -0.018824534 0.037163816 -0.01784258
0.08763846 0.1530381 0.04620158 -0.041618902 0.08550175 -0.06464311 -0.077730514 0.21077934
0.021726537 -0.006830589 -0.15830927 -0.004987694 -0.05377689 0.05537374 -0.13887742 -0.091805324
0.041417997 0.16608422 -0.0037967956 -0.19061033 -0.13804185 -0.035949487 0.073502734 0.022890966
0.1428281 -0.075437196 0.027235141 -0.051047374 0.075718835 0.041810304 -0.0063816956 -0.004437273
-0.085559785 -0.0048700483 -0.049840864 0.21941628 -0.09449372 0.18113533 -0.05529903 0.23019063
-0.115976565 0.034623187 0.18150531 0.003647512 0.020900004 0.21453838 -0.23235808 -0.25393
0.007164736 -0.014780453 0.00449559 -0.09194091 0.10017604 -0.16377713 -0.065257676 0.0076397564
0.022460034 -0.14065434 0.105800554 -0.007491037 -0.10757928 -0.35782844 0.020229306 -0.027162902
-0.099478744 0.098278284 0.02675353 -0.2027407 0.16520314 0.06733706 -0.22958793 0.10320406
0.07730987 0.0100639425 0.014053768 0.018654983 0.027463267 0.20568718 -0.069310255 0.09660388
0.050649438 0.10157218 0.3690041 -0.17191376 0.07298745 -0.09012637 0.117770985 -0.0914525

lstm.weight_hh_l1 f4 [256, 64]
00000000: 3a3f a4bd 2529 df3d 3075 213d 20ad 3f3e
00000010: 2030 7f3d 0be4 213e 0c9f 92bd 0535 87bd
00000020: 4106 ae3d 36f0 09bd 40c6 013d 5cbd 30bd
00000030: 6991 0b3d 2c6a c4bc 156b a2bd 4fc5 663d
00000040: 74bb d3bd 897c 0a3c f307 f9bd 2141 1cbe
00000050: 2830 223e 5f6b 05be 2246 f4bd 9ee5 aa3c
00000060: 14c7 b23d fe40 79bc 2ce8 32bd b61c 0ebe
00000070: bbad 263e e9cb 8c3d 4d50 f83d 0f85 f2bd
00000080: bcc2 26ba b4aa 07be f17d 9e3c a9b8 b63d
00000090: c200 853d e8f0 263e 4ee8 a4bd d7e4 0dbd
000000a0: 4874 0abe 4d6f 45be e7cf 2ebe b070 583c
000000b0: ea4d 46be e4a2 0bbd 650c 9abd 0a8d 29be
000000c0: e56d db3d 7eec 7c3b c26d 48bd 1c84 6c3d
000000d0: 7554 c6bd e623 663d 7f14 2cbe 5eb8 003e
000000e0: 4df5 d5bc eada 5c3d 2bd1 e3bd a87c 22be
000000f0: 1b42 1bbe cc02 7c3d 7c44 22be da3c 043d
00000100: 3d3b 323e a4fb 72bb 88d1 173e b6c7 f5bd
00000110: e7b2 d03b 3ccf 38bd 6841 073e 8542 d73d
00000120: 2893 96bd f185 c1ba 59e5 88bc 2dc7 573d
00000130: 7c73 b3bd da43 abbc d1c4 963d 554f 4cbd
00000140: f484 13bd 23e3 023e f79f dcbd 02f0 913d
00000150: ece1 50be b796 c7bd 35ae 7f3d 519b 2c3e
00000160: f1fe 933c dc1d 823d 6adc f33c ce5c 293d
00000170: 21a0 f7bd bf1b 1a3e 651a 89bd b99d fe3d
00000180: 6d4d cebd 79a0 643d faa5 54bd 8774 af3b
00000190: 11a3 d6bd d192 03be 9097 fd39 30d4 abbd
000001a0: 4ba0 c1bc 40eb b9bd 143d a8bd 58f5 88bd
000001b0: 3cde 5a3d 6c2e 5cbe 10fd cb3d 6876 8c3d
000001c0: e1dc acbd 62fc 9bbc 9ff9 e0bc 29c9 e3bd
000001d0: bedc e6bd 362c d43b 198d d93d 845e 853c
000001e0: 4488 9bb9 d412 05be 80e6 e13c 0f5f 193b
000001f0: 2576 b03d 228e 65be da8f d23d 8591 953b
00000200: 216a 663d fe5a 693d 1f4f cf3d 832b c83c
00000210: 60f7 fcbb c9ef 0f3c 7e69 163a 2d94 19bd
00000220: 9ecd 833d 8d87 f23d 6011 603d 64aa 0b3d
00000230: e407 eb3c 498e a4bd e420 573d bdc1 38bd
00000240: 8884 d73c 0761 2d3e 3a4d 463b 0d5b 0b3c
00000250: 5272 8f3a 41ab f2bd 8dfc d7bd 6206 483d
00000260: d0d1 83bd 8d4c 8c3d 82d7 09be 7c62 4abd
00000270: cde8 173c 0622 733d c916 8f3d 8c26 d0bd
00000280: 973f aa3d 3e40 083c fb84 613e 4954 f13d
00000290: e7d8 a23d 0e54 62be b18b 8e3d 5251 17be
000002a0: 72ad f4bd ed3d 4fbe 0f15 0abe e7e7 8fbc
000002b0: 69bf c3bd e2c4 04be 7cd0 dcbd ee15 bfbd
000002c0: 04f3 01be 5d21 bd3d 92fd 603d ddb2 4abc
000002d0: b085 6ebe f78f 313e d0eb 893c cf90 f5bc
000002e0: 87c2 f6bc 0220 6d3d 5cd5 52be fd15 12be
000002f0: b3de 06be a8a3 833c 5cbf dabd 7fe8 4b3e
00000300: abb6 1d3e db10 0b3e c853 5e3d b472 593d
00000310: 86e9 3b3c 9e40 a13d e457 1dbe 5248 af3c
00000320: 5b9f e3bd 3155 2a3e e9c6 583d 6c12 053d
00000330: 54fe 1f3e 9019 babd fa4c 1ebd 5610 fabc
00000340: 9375 f63c a2a7 273e 89dd 28be 4d63 4cbd
00000350: 4312 dcbc c67f 103d a820 edbd 59c5 953d
00000360: 400a eaba 2ebc 3c3a ab6a 3dbd 2f86 a9bd
00000370: 7ab7 ab3c df8c b1bd 5846 24bd 5990 cdbd
00000380: 266c 1c3c 587a 9d3a b2e0 183d 6d68 e33c
00000390: 6971 463e e71b d73c 4e03 87bd 7c88 b0bd
000003a0: cd39 8f3d cf0f 10be 5b99 48bd 024b 04be
000003b0: 884d 6abe e7c7 61be 9350 4ebd 609d 01bd
000003c0: 09e6 52bb 76da cbba 632b 593e f383 e6bd
000003d0: 7a80 75bd b825 b43d 68a8 b8bd 4eab c33d
000003e0: 81a8 26be 2fae 913d a460 65be ab0b 933d
000003f0: 9081 4739 94f8 f7bd 1165 b23b 0a66 3f3e
-0.08019872 0.108965196 0.0394184 0.18718386 0.062301755 0.15809648 -0.07159242 -0.066019095
0.084972866 -0.03367635 0.031683207 -0.043149337 0.03407422 -0.023976408 -0.079305805 0.056340512
-0.10338488 0.008452543 -0.12159719 -0.1525922 0.15838683 -0.1302924 -0.11927439 0.020861443
0.087293774 -0.015213249 -0.043678448 -0.1387814 0.1627721 0.0687483 0.12124691 -0.11841785
-0.0006361415 -0.13248712 0.019347163 0.0892194 0.06494285 0.16302836 -0.08052121 -0.034642067
-0.1352092 -0.19280739 -0.17071496 0.013210461 -0.1936566 -0.03409089 -0.07521895 -0.16557708
0.1071432 0.0038593109 -0.0489328 0.057743177 -0.09684078 0.05618658 -0.16804694 0.1257033
-0.026117945 0.05391971 -0.1112388 -0.15867865 -0.15161936 0.061526105 -0.15846437 0.032284595
0.1740541 -0.003707626 0.14826024 -0.120009825 0.006368983 -0.04511951 0.13208544 0.105107345
-0.073522866 -0.0014764649 -0.016710924 0.052680183 -0.08762261 -0.020906378 0.073617585 -0.049880344
-0.036015466 0.12781958 -0.107726984 0.07125856 -0.20398682 -0.097455435 0.062421996 0.16856124
0.018065901 0.063533515 0.029768188 0.04134827 -0.12091089 0.15049647 -0.066944875 0.12432427
-0.100733615 0.0558171 -0.0519161 0.0053544673 -0.10480321 -0.12848975 0.00048368843 -0.08390081
-0.023636004 -0.090780735 -0.08214775 -0.066874206 0.053434595 -0.21502084 0.09960377 0.06858522
-0.08440567 -0.019041244 -0.027462779 -0.11122353 -0.11272572 0.006474997 0.10622615 0.01628042
-0.0002966543 -0.12995464 0.027575731 0.0023402607 0.08616284 -0.224175 0.10281344 0.0045644664
0.056253556 0.056971543 0.10122513 0.02443481 -0.007719919 0.008785197 0.00057377655 -0.037494827
0.06435703 0.118422605 0.05470407 0.034098044 0.028690286 -0.08034951 0.0525216 -0.04510664
0.026308313 0.16931544 0.0030258433 0.008505595 0.0010944104 -0.1184907 -0.10546217 0.048834212
-0.06436503 0.068505384 -0.13461116 -0.04941033 0.009271813 0.05935862 0.06986768 -0.10163602
0.0831291 0.008316098 0.22023384 0.11783654 0.07951527 -0.22102377 0.06960238 -0.14777115
-0.119471446 -0.20238467 -0.13484596 -0.017566634 -0.09557993 -0.1296573 -0.10781953 -0.09330355
-0.1269036 0.09234879 0.054929323 -0.012371746 -0.23293185 0.17340074 0.016836077 -0.029976277
-0.030122055 0.057891853 -0.20589203 -0.142662 -0.1317089 0.016069248 -0.1068103 0.19912909
0.15401714 0.13580649 0.05427912 0.053087905 0.011469251 0.07873653 -0.15365559 0.02139679
-0.11114379 0.1663406 0.05292407 0.03248827 0.15624362 -0.09086907 -0.03864763 -0.030525368
0.03008536 0.1637254 -0.16490759 -0.049899388 -0.026864177 0.035278104 -0.11578494 0.07313032
-0.0017855838 0.0007199672 -0.046244305 -0.082775466 0.020961512 -0.08669447 -0.040106148 -0.10037298
0.009547269 0.0012014611 0.03732366 0.027759755 0.193792 0.026258422 -0.06592427 -0.08619782
0.069934465 -0.1406853 -0.048974376 -0.12919238 -0.22881138 -0.22048913 -0.05036981 -0.031644225
-0.0032180569 -0.0015552777 0.21207957 -0.11255636 -0.059936978 0.08796257 -0.09016496 0.09554158
-0.16275217 0.07113301 -0.22400147 0.0717996 0.00019026385 -0.121079594 0.005444177 0.18691269

lstm.bias_ih_l1 f4 [256]
00000000: fcf3 fcbd 9bed 1abd 1e29 6ebe a948 2dbe
00000010: 6da6 61be 8e59 5bbc 4860 0fbd 5134 153e
00000020: a452 cbbd f878 f7bd 25cf 16be 7045 32bc
00000030: 5931 643d fd4f 50be 743b 56bd f006 85be
00000040: c8f2 05bd 26e5 9abd 15de ba3d 7764 c03d
00000050: 6edc 52be 6740 52be 4a47 cd3c 5cf4 e4bc
00000060: 69e4 8e3d 0a52 98bd 65b3 c23b 03ae 1cbe
00000070: e24a 033e 1e6c 45be 9784 3bbd bb18 febc
00000080: 94ff 02be cdfc 51bd 69ac 59bc cba7 56be
00000090: 1d91 333c 20a5 7c3d 8e46 14be 2545 85be
000000a0: 100e 4cbe 2278 db3d 1301 e2bd 8f28 d4bd
000000b0: 0cc4 b2bd 5d89 55be 6ceb 1fbd f748 bd3d
000000c0: 1848 7ebe 7cc6 e5bd 3819 43be bf0a 1abe
000000d0: eb1b 92bc 83f6 c7bd 8fd9 0dbe 95fc a0bd
000000e0: 6e93 06be 4cb0 673c 21c7 a4bd bde0 aabd
000000f0: a04b bdbd bb50 933b e4fe 95bd 38c4 833d
00000100: 5e38 76bc 14c0 04be 319d 09be d45f 60be
00000110: fe69 34be 515c 4bbd 47b3 803b 30a2 943c
00000120: 665b 6dbd e8fc 1dbd 61ef bbbd 6e09 a33d
00000130: 35c8 1ebd f7fe 89bd 04b6 e1bd 2c12 87be
00000140: 737e 8c3b 146b ebbd c657 113d f879 003d
00000150: 9af0 8ebc 965f 25be 35a8 863d 6316 67bc
00000160: 1237 cebd fe63 02be 3452 0ebe 5716 07bd
00000170: b2e9 d8bd e879 2cbe d1ef a8bd b56b 12be
00000180: 23ec 90bc ff39 4f3c 3af8 98bd dbfc 9dbd
00000190: f53d 8ebb 703d 02bd 9d72 7dbd a994 90be
000001a0: a8e8 0abe e2b7 3dbb bfa7 71bd 883d 8dbd
000001b0: ea8e 4cbc f38e 86bd a3bd 0b3d 79f6 6bbd
000001c0: b357 05be 069c 4cbe 02e0 51be 1780 a6bd
000001d0: b787 f13d d496 993c 4519 0abe 81a9 803d
000001e0: ebb9 0fbe 6834 1dbe 2ad2 d63d a053 dbbd
000001f0: b943 bdbd 1ad6 c3bd afb4 a6bd f219 9b3c
00000200: 21f7 5f3c 6f60 04be 72a3 a83c 7e10 913d
00000210: f71f 413d 9b09 c4bb 4445 c7bd 09d5 cbbd
00000220: 6adf 39bd 97f5 b0bc 4c23 f6bd bde6 96bb
00000230: 2aba 73bd 2ec9 e4bd abb8 ca3d cdd5 c33c
00000240: fbc6 a73b d5a6 3c3c 319a c63c a063 4e3d
00000250: 51c7 c3bd 3636 a63c a726 d93d d5f9 02bd
00000260: 4b62 0b3d 14f9 6ebd 0659 273d 758c 8abd
00000270: ec3b d1bd 068d 3bbd 8c49 493d 1060 20bd
00000280: fcca e9bc 64fe 2c3d f0c4 8abd 2ccb 8cbd
00000290: 8c85 bcbd 6f86 85bd bf3d 5ebc dfc9 243c
000002a0: 4454 653c 69b0 8d3d 5492 b13d d7b0 cdbc
000002b0: 310a 113e 3bbd 083d 57a6 813d c09e 993d
000002c0: b80b 4b3d 9ec5 abbc d926 12bd 742a 1b3d
000002d0: fc6c 5c3c cda6 933c aa62 233b 6f60 b8bd
000002e0: b348 9c3d 17d5 853d 1587 2b3d 5f4a 003e
000002f0: 9bba 893d 27c7 b83c ec52 a8bc 084c cfbd
00000300: 0c58 61bd c045 d73d 2bfe 3ebe ae61 26be
00000310: 0102 19be eb9b f8bd 7f0f b73d b21a 1e3d
00000320: 9e6d 01bd 6994 98bc 4f85 e1bc 1551 21be
00000330: dfce 30bd 1481 b63b 0291 16be 17d5 dbbd
00000340: 61aa d5bd 1ba5 a2bd 4de9 b0bd 3fc2 fbbd
00000350: 5fcc a7bd 73d8 28be 688a 193d 0cca 28be
00000360: ec9e 8e3d 47e9 953d 6ca1 41be 32d5 d9bd
00000370: d919 d33d a7ca 38be 1c12 11be 5817 d3bd
00000380: a761 5dbe 5c64 cdbd 61f4 52bd ba1f 15be
00000390: 456a 5b3c 3589 3abd cfae 15be 1d4b 84be
000003a0: 6c2f f9bc 4173 b63d c1d0 a03c 641b 89bd
000003b0: 8f35 d73d 9455 eebd c91a 04be 0769 b03d
000003c0: 6367 f7bd a787 5fbe f686 bfbd 5101 dcbd
000003d0: 2398 7ebd 504f 793d dc21 0cbe b045 cbbc
000003e0: d45a 1ebe e44d 293d 897d 81bd 1a83 10bd
000003f0: 9f6b 853d f69f a5bc 2080 04bd d926 213d
-0.12351224 -0.037824254 -0.23257872 -0.16922249 -0.22036143 -0.013388051 -0.03500393 0.14570738
-0.09927872 -0.1208362 -0.14727457 -0.010880813 0.055711124 -0.20343013 -0.052302793 -0.25981855
-0.032702237 -0.07563238 0.0912439 0.09394162 -0.205919 -0.2053238 0.025058407 -0.02794855
0.069771595 -0.07437523 0.0059417957 -0.15300755 0.12821534 -0.19279525 -0.045780744 -0.031017652
-0.12792808 -0.05126648 -0.013285735 -0.20962445 0.010959891 0.061680913 -0.1448004 -0.26029316
-0.1992724 0.10716273 -0.11035361 -0.103592984 -0.08728799 -0.20853181 -0.039042875 0.092424326
-0.24832189 -0.112194985 -0.19052589 -0.15043162 -0.017835578 -0.09763815 -0.13852523 -0.07860676
-0.13142177 0.014141154 -0.08045793 -0.08343647 -0.0924294 0.004495708 -0.07324007 0.0643391
-0.015028087 -0.12963897 -0.1343887 -0.21911556 -0.17618558 -0.049648587 0.0039276215 0.018143743
-0.057948492 -0.03857127 -0.09176517 0.07960783 -0.03876515 -0.06738084 -0.11021045 -0.26381052
0.004287535 -0.11495033 0.035484098 0.03136632 -0.017448712 -0.16149744 0.06575052 -0.0141044585
-0.100690976 -0.12733456 -0.13898546 -0.03298029 -0.10591449 -0.16843379 -0.08248866 -0.142989
-0.017690724 0.012648105 -0.074692205 -0.07714244 -0.004340882 -0.031796873 -0.061876882 -0.2823842
-0.13565314 -0.0028948714 -0.058997866 -0.06896502 -0.012485245 -0.06570234 0.0341164 -0.0576081
-0.13021736 -0.19981393 -0.20495608 -0.081299 0.11793464 0.018748678 -0.13486202 0.0628233
-0.14035766 -0.15352023 0.10489304 -0.107093096 -0.09241433 -0.09562321 -0.081399314 0.01893327
0.01366976 -0.12927411 0.02058575 0.07083224 0.047149625 -0.0059825904 -0.09730008 -0.099527426
-0.04537908 -0.021601481 -0.12018451 -0.004605143 -0.05950371 -0.111711845 0.09898504 0.02390566
0.005120156 0.011514385 0.024243446 0.05038798 -0.09559501 0.020289522 0.106030755 -0.03197654
0.034029286 -0.05834301 0.040856384 -0.06765071 -0.10216507 -0.045788787 0.049142405 -0.039154112
-0.028539173 0.042234793 -0.06775844 -0.068746895 -0.092051595 -0.06519782 -0.013564526 0.010057895
0.013997141 0.06918413 0.08670488 -0.025108738 0.14164044 0.03338359 0.06330555 0.07500982
0.049571723 -0.020968255 -0.03568158 0.037882283 0.013453718 0.018023873 0.0024930635 -0.09002768
0.07631054 0.06534784 0.04187687 0.1252837 0.06725045 0.0225559 -0.020547353 -0.10121924
-0.05501561 0.10511351 -0.18651645 -0.162482 -0.1494217 -0.12139114 0.089385025 0.038599677
-0.03159868 -0.018625455 -0.027529387 -0.15753587 -0.043166038 0.0055695865 -0.14703754 -0.10734003
-0.10432888 -0.079416476 -0.086382486 -0.12292909 -0.081932776 -0.16488819 0.03748551 -0.16483325
0.06963906 0.07319885 -0.18909234 -0.10636367 0.103076644 -0.18046056 -0.14167064 -0.10307187
-0.21619283 -0.10028908 -0.05150259 -0.14562884 0.013392036 -0.045541007 -0.14617465 -0.25838557
-0.03041812 0.08908702 0.019630792 -0.066946775 0.10508262 -0.116374165 -0.12900843 0.086137824
-0.12080266 -0.21829091 -0.09351914 -0.107424386 -0.062156808 0.060866654 -0.13684791 -0.024813503
-0.15464336 0.041334048 -0.06322772 -0.03528128 0.06514668 -0.020217877 -0.032348752 0.03934369
